mnist_net.pth (torch, 440220 bytes, 6 tensors)

fc1.weight f4 [128, 784]
000000 48 69 b1 3b fd d8 cd 3c c9 53 98 3c 9d 3b c4 3c
       0.005414162 0.025127882 0.01859464 0.023954207
000010 56 54 0d bd ad 71 5a bc bf 5b 10 bd 0b 61 13 bd
       -0.034504257 -0.0133327665 -0.035243746 -0.03598122
000020 dd e7 f2 bc 97 b3 04 bd bd 82 00 bd a7 2f c7 3c
       -0.029651577 -0.032397833 -0.03137468 0.024314715
000030 44 ec 83 3c f6 bb c9 bb 63 fc 60 bc 52 04 03 bd
       0.016103871 -0.00615644 -0.013732049 -0.031986542
000040 2c 23 0a bd 6b de a7 3b 4c 56 8b 3b e1 7a 8b bc
       -0.03372495 0.00512295 0.0042522307 -0.017026367
000050 3b f3 83 bc 80 6c c9 bb c8 7d 25 3b 2f 82 ee bc
       -0.016107192 -0.0061469674 0.0025251973 -0.02911481
000060 5c 4b e5 3b 91 d4 c1 bc 9f 89 31 bc 48 8f ae bb
       0.006997509 -0.02366093 -0.010836034 -0.005327139
000070 0b ff de 3c 91 02 96 bc 92 2d 6c bc 1d 4b cf bc
       0.027221223 -0.01831177 -0.014415162 -0.025304371
000080 93 1c bb bc 76 e6 3f 3b 81 f0 40 bc b0 4e cd 3c
       -0.022840774 0.0029281653 -0.011776091 0.025061935
000090 ee 4a c2 bc 03 d1 b5 3c b6 1b 10 bd a9 c5 de 3c
       -0.02371737 0.022194391 -0.035182677 0.027193861
0000a0 5d ae 8e bb 58 f2 41 3a 96 49 43 bc b1 29 a2 bc
       -0.004354282 0.0007398478 -0.0119194 -0.01979527
0000b0 bf fe a3 bc 01 12 a3 3c 93 2d fc bc d1 79 67 bc
       -0.020018933 0.019906046 -0.03078345 -0.014128164
0000c0 9a 54 39 3c 59 74 1a bd 03 8d 93 3c 9f c9 95 3c
       0.0113116745 -0.037708614 0.018011576 0.018284617
0000d0 cc 45 87 bb b2 59 fb bc 97 01 d5 3c 88 cf d4 bc
       -0.0041281935 -0.030682418 0.026001735 -0.025977865
0000e0 14 23 b1 bb 98 d5 11 3b e5 8c d7 bc df 78 a0 bc
       -0.005405793 0.0022252556 -0.026312301 -0.019588886
0000f0 54 c5 6d bc ed d4 4a bc 16 78 f3 bc 4d 12 71 bc
       -0.014512379 -0.012379867 -0.029720347 -0.014713836
000100 dd eb ca 3b f0 ce c9 bc 1c 2b ad 3c 40 51 0a 3d
       0.006192668 -0.024634808 0.02113872 0.033768892
000110 33 6d c3 3c dc 2f ad 3c 61 a3 00 bd 79 57 25 3c
       0.023855781 0.021140985 -0.03140581 0.010091656
000120 37 d8 ac bc b6 87 c4 b9 89 98 1e 3b 0a 13 09 bd
       -0.021099193 -0.00037485146 0.0024199805 -0.033465423
000130 57 c3 97 3c aa 6b ee bb fa 9a a1 3c 34 51 9d 3c
       0.018525762 -0.007276018 0.019727219 0.01920376
000140 50 e5 8d 3c 87 8d c6 3c 91 56 8c bc 5e 30 c0 b8
       0.017321259 0.024237407 -0.017131122 -9.1642825e-05
000150 a4 c3 e4 ba 72 ad fa 3c 49 02 ff bc 42 e2 c4 bc
       -0.0017453325 0.030600283 -0.03112902 -0.02403367
000160 1e 74 2e bc 78 56 19 bc 9f 07 57 bc e3 c7 ea bb
       -0.010647802 -0.009358995 -0.013124376 -0.0071649416
000170 bd 35 07 bd 9d 76 f4 b9 c9 16 94 bc 30 36 b8 3a
       -0.033010233 -0.0004662768 -0.018077271 0.0014054235
000180 58 f2 c7 bc 40 fa c5 3c 13 33 08 3d a5 55 01 3c
       -0.02440755 0.02416718 0.033251833 0.007893954
000190 53 1b c2 3c 0c c6 12 bd f8 8f c3 bc 1d 64 01 3d
       0.02369467 -0.035833403 -0.02387236 0.031589616
0001a0 5b 1c fe 3b e3 e3 fb 3c 32 28 c8 bb d8 21 dd 3c
       0.007754845 0.030748313 -0.0061083073 0.026993677
0001b0 e2 66 0a bd 70 1e a9 3b ff c6 81 bb 9d b7 d1 39
       -0.033789523 0.005161099 -0.0039604898 0.0004000039
0001c0 06 df 9e bb f5 0f 19 bc 5c 29 e7 bc 84 a3 03 3d
       -0.004848364 -0.009342183 -0.028217964 0.032138363
0001d0 2f 4d f6 bc 8c 5e a2 3c 69 7c 85 3b e4 7c df bc
       -0.0300661 0.019820474 0.0040736687 -0.027281232
0001e0 87 87 d1 3c ad b0 8e 3c a5 2b f9 3c 20 c8 d4 3a
       0.02557732 0.01741823 0.03041632 0.0016233958
0001f0 d6 ff 44 ba 7d 0f 31 bc b5 e5 d2 bc 8f ac e2 3c
       -0.0007514929 -0.010806915 -0.025744298 0.027670173
000200 1d 2a 54 bc 90 b3 8e 3c 60 44 8b bc 25 56 9c 3c
       -0.012949494 0.017419606 -0.017000377 0.019084046
000210 f4 5d 93 3c e0 35 b5 bc 8e f8 9b bc dd e4 df 3c
       0.017989136 -0.022120416 -0.019039419 0.02733081
000220 3c aa 97 bc 94 36 bd bc 6a 2a 3b 3c b7 7f fe bc
       -0.018513791 -0.023097314 0.0114236865 -0.031066759
000230 e8 4f cd bc 24 37 8f 3c 2a b2 3a 3c c6 f1 72 bc
       -0.025062516 0.017482348 0.011395017 -0.014828151
000240 95 68 02 bd 6c 8d f8 3b db c4 cc 3c 75 0e 26 3c
       -0.03183802 0.007585218 0.024996212 0.010135283
000250 42 98 87 3c 18 06 44 3d 5e b1 6e 3d 56 7d 56 3d
       0.016552094 0.047857374 0.05827462 0.052365623
000260 9e 08 28 3c a2 6b d7 3c af 45 e1 3c 4a 1f 46 3d
       0.010255961 0.02629644 0.027499048 0.048369683
000270 39 cb 04 3d d0 de c1 3c f9 ca b7 3c 5c 25 08 3d
       0.03242037 0.023665816 0.022435652 0.033238754
000280 5b d0 6c 3c 26 1c b6 3c 5d 27 f5 bc f6 cf 9f 3c
       0.014453973 0.02223022 -0.029925996 0.019508343
000290 23 8e 84 bc 06 aa b8 bc 36 21 02 3c be e6 ef bc
       -0.016181057 -0.022542011 0.007942488 -0.029284831
0002a0 1d 9f c7 bb 27 e7 ae bb 00 42 7a 3c 3d f2 80 3b
       -0.006091966 -0.005337614 0.015274525 0.003935127
0002b0 91 b4 b2 bc d5 c2 a3 bc 35 f2 18 bd 84 f6 71 bc
       -0.021814616 -0.019990364 -0.03734036 -0.014768247
0002c0 af 0d ab bc 7f a3 4d 3d 56 a1 0c 3d 65 df 6c 3c
       -0.020880548 0.05020475 0.03433355 0.014457558
0002d0 bd 7d d6 3c 1c 7a 6d bc 83 e6 30 bc 99 75 c4 3c
       0.026183004 -0.014494445 -0.010797146 0.023981856
0002e0 4a 20 5d 3c ee 6d 8d 3c 54 50 40 3d 53 c2 e6 3c
       0.013496468 0.017264333 0.046951607 0.028168833
0002f0 d1 79 5a 3c 58 f5 7d bc f7 3b 3b bd 6e 51 a0 bc
       0.013334707 -0.015500389 -0.045711484 -0.019570079
000300 e2 75 94 bc 13 10 04 bd 48 c7 81 bc 76 f7 13 ba
       -0.018122617 -0.032241892 -0.015842095 -0.00056444795
000310 2b b0 cd bc c0 11 94 bc a4 ac 04 3d 71 94 85 3c
       -0.025108417 -0.01807487 0.032391205 0.016306134
000320 42 dd d8 3c 02 48 ba 3c 28 63 19 bc 71 db 51 bc
       0.026472691 0.022739414 -0.00936202 -0.012808667
000330 89 1d 70 bc cc 8d dc 3c 8e c2 85 3d 43 a9 2f 3d
       -0.014655479 0.026923083 0.06531249 0.04288603
000340 a6 3c d2 3c 60 87 3b 3c 39 11 0c bd 20 e5 bf bc
       0.025663685 0.01144585 -0.034196112 -0.023424685
000350 3f a5 26 bd 01 88 69 3c b2 6e c8 3c fb de 2d bc
       -0.040684935 0.014253617 0.024466846 -0.010612245
000360 45 11 4b 3d f7 25 3c 3b c5 69 66 bc f2 36 0f 3c
       0.049577016 0.0028709152 -0.014063303 0.008741127
000370 f6 cf ae 3c c5 33 08 3d 0d e2 8e 3c 3d d2 17 3c
       0.021339398 0.033252496 0.017441774 0.009266433
000380 cc c3 5f 3c 26 7f 62 3c f7 09 f5 3c 29 64 13 3c
       0.013657521 0.01382426 0.029911978 0.008996048
000390 a7 dc 0a bd 76 93 e5 bc 71 ae 68 3c ba 60 18 3c
       -0.033901837 -0.028024416 0.014201746 0.009300405
0003a0 b7 77 26 bc 66 37 6b 3c ac 5e 82 3b 04 2f 8b 3c
       -0.010160378 0.01435647 0.003978571 0.016990192
0003b0 6f 59 c1 3a 4f 1c 87 bc a9 18 a3 bc 73 44 15 bd
       0.0014751385 -0.01649299 -0.01990922 -0.03644223
0003c0 0c 7b 29 bd 5a 3c fe bc 7a 17 6a 3c d6 ae b5 bc
       -0.041377112 -0.031034637 0.014287824 -0.022178095
0003d0 8d 68 9c 3c c2 23 2a bc 4e f2 c9 bb 0b 16 0d bb
       0.019092822 -0.010384502 -0.006162918 -0.0021528031
0003e0 37 d4 b2 bc e9 39 9f 3c 9a 2e ac bc 0f eb 80 bc
       -0.021829708 0.019436793 -0.021018315 -0.015737085
0003f0 40 b3 84 bc a2 91 ad bc 1a 5d fe bc 36 03 8f bc
       -0.016198754 -0.021187607 -0.031050254 -0.017457586

fc1.bias f4 [128]
000000 6a 35 13 3d f7 e7 dd bc cc f4 b2 3b cb f2 3b 3c
       0.03593961 -0.027088149 0.005461311 0.011471461
000010 34 4c f9 bc c9 8a 02 3d 67 73 04 bd c2 7c 0c 3d
       -0.030431844 0.031870637 -0.03233662 0.034298666
000020 a9 a3 00 3c 68 ab 0c bd 1e dd 1e bd dc 39 31 3c
       0.00785152 -0.034343153 -0.038785093 0.010817017
000030 3a 6d 4f bb 7e b7 31 3c 8c 89 01 bd f0 ea c2 bc
       -0.0031650797 0.010846971 -0.031625316 -0.023793668
000040 aa 93 11 3c 3b 27 cb 3c 21 11 a2 3c b3 b4 c1 3c
       0.0088853035 0.02479898 0.019783558 0.023645734
000050 30 01 66 3c 55 9a af bc 43 2a 9e bc b4 c8 ae 3c
       0.014038369 -0.021435896 -0.019307261 0.021335937
000060 63 e5 61 3c 48 55 2c bc 9c 8c dd bc ab dd b4 3c
       0.0137876 -0.0105183795 -0.027044587 0.022078356
000070 77 cb 0c 3d 11 5c f2 3b b6 28 29 bc d9 4f b6 bc
       0.034373727 0.007396229 -0.010324648 -0.022254871
000080 fc cb a8 3c ca 32 5c bc a7 68 36 bc a4 d5 3e bb
       0.02060508 -0.013439843 -0.0111333495 -0.002911904
000090 7d 42 0b 3d 06 d4 95 bc 27 62 b7 bc e7 c7 92 ba
       0.033998955 -0.018289577 -0.02238567 -0.0011198492
0000a0 0d 08 c6 3c d3 64 99 bc cb a4 04 bd 68 79 01 bd
       0.02417376 -0.018724835 -0.03238372 -0.031609923
0000b0 ce df 92 3c 04 00 88 3c 33 a8 7a bc b6 8b c6 bc
       0.017928984 0.01660157 -0.015298891 -0.024236541
0000c0 d6 f7 82 3c 7f 41 ed 3a 12 de 04 bd ec b7 c2 bb
       0.015987318 0.0018101184 -0.032438345 -0.0059423354
0000d0 9a d7 78 bc 02 9e 19 bc 2f dd cd bb 0d d5 5a bc
       -0.015188122 -0.009376051 -0.0062824707 -0.013356459
0000e0 86 e6 f8 bc 26 c8 5d 3c e1 23 60 bc 6d 12 e2 bc
       -0.03038336 0.013536489 -0.013680429 -0.027596677
0000f0 b9 51 40 bd c0 55 0d 3d a9 96 3a 3b b9 df 99 3c
       -0.046952937 0.034505606 0.0028471148 0.018783437
000100 44 99 c1 3c 3b d1 86 3b 55 02 e0 3c 2f 0d 85 bc
       0.023632653 0.0041142977 0.027344862 -0.016241638
000110 1e 00 87 bc 15 c4 35 3c 1e 2c 62 3c b8 fd bd 3b
       -0.016479548 0.011094113 0.013804464 0.005798068
000120 30 0b 81 3c 9d 1b 81 3b 48 cb ae bc 0a 86 36 3c
       0.015752405 0.0039400593 -0.021337166 0.011140356
000130 c4 16 ad 3c 5b 7e 0b bd 70 f9 c6 3c fe d8 f2 39
       0.02112902 -0.03405605 0.024288863 0.0004631951
000140 68 8e bb bb 46 3a 03 bc 67 c2 0c 3a 92 93 b5 3c
       -0.0057237633 -0.008009499 0.00053695444 0.022165094
000150 97 4f 95 bb af 0e 61 bc 2b 33 48 3b cb 09 93 bb
       -0.004556607 -0.013736411 0.0030548077 -0.0044872514
000160 7b 2c c2 bc 6e 2e 67 ba 20 66 9e 3c 09 29 b1 3b
       -0.02370285 -0.0008818869 0.019335806 0.005406503
000170 dc 07 dd 3c 80 6b 1d bc 85 eb 96 3b 2c b8 d5 bc
       0.026981287 -0.0096081495 0.004605713 -0.026088797
000180 41 95 26 bc 1c ab 2b bb d8 23 ec 3b 21 0d a2 3c
       -0.010167421 -0.0026194518 0.0072064213 0.019781651
000190 e8 db 12 bc 7c 89 b0 bc 3e b3 8a 3c 4f b2 be bc
       -0.008963563 -0.021549933 0.016931172 -0.023278384
0001a0 76 d4 99 bc 20 c9 20 3d 79 29 fb 3b b3 bc e0 3c
       -0.018778067 0.039254308 0.007664856 0.027433729
0001b0 69 b2 fd bc b4 6b 0a bd e7 0b d2 bc cb 9f ad 3c
       -0.030968862 -0.03379412 -0.025640441 0.02119436
0001c0 44 9c a3 bc 34 a4 09 bc 5b 6b a5 3c 54 0b ef 3c
       -0.019971974 -0.0084009655 0.020192793 0.029180206
0001d0 d2 e5 1e ba 3a 3a 00 bd d6 cd 01 3c 57 1a cc 3c
       -0.00060614676 -0.03130553 0.00792261 0.024914904
0001e0 34 33 40 bb ec 32 dc bc fb 0b fe bc a4 e3 cd ba
       -0.0029327394 -0.02687975 -0.031011572 -0.0015708101
0001f0 dd a0 61 3c 17 b2 01 3d 74 60 86 bb 68 45 07 bd
       0.013771263 0.03166398 -0.0041008536 -0.033025175

fc2.weight f4 [64, 128]
000000 af 8c 14 3d 09 65 48 3d 4b 15 84 3c 59 65 c9 bd
       0.03626698 0.04892448 0.016123435 -0.09833784
000010 c4 18 08 bd a0 8e 04 3d ae c3 58 bd 46 23 3d bd
       -0.033226743 0.03236258 -0.05292099 -0.046176217
000020 03 dd af bd 39 00 74 3d 93 43 fc 3d c8 ff 0b be
       -0.085870765 0.059570525 0.12317576 -0.13671792
000030 5e fd cf 3b 58 b8 e5 bd d7 d9 a6 3d 5e 64 66 3c
       0.0063473424 -0.112168014 0.081470184 0.014062015
000040 fc cf 6a bc b4 16 6c 3d 18 ab a4 bd d7 43 1b bd
       -0.014331814 0.05763884 -0.08040446 -0.037906494
000050 94 ed 2d bb e7 3b a1 3d 50 79 19 be 94 57 4e bd
       -0.0026539313 0.078727536 -0.14987683 -0.05037649
000060 6a 13 3d bd 7e 24 f2 3c 61 9c be 3d 3f 78 a8 bb
       -0.046161093 0.029558416 0.09307171 -0.0051412876
000070 92 75 c1 bd 57 d8 1b bc d8 f3 ab bd 34 4b 7b bd
       -0.09446253 -0.009512029 -0.08396119 -0.061351016
000080 49 b3 01 bd 0a 27 33 3d 51 6b 3f 3d f6 82 bb 3d
       -0.03166512 0.043738402 0.046733204 0.09155838
000090 63 3a 17 bd f3 f2 5b bd 4b 02 d5 bd 5f d3 37 3d
       -0.036920916 -0.05369849 -0.10400828 0.044879314
0000a0 cd f1 35 3e c3 8c 5a bc 29 bf e1 3c a2 9d b7 3a
       0.17768021 -0.013339224 0.027556973 0.001400877
0000b0 e6 cd 96 3d aa fc d0 bc a1 a8 ed bd 61 19 ac 3c
       0.07363491 -0.025511105 -0.11604429 0.021008195
0000c0 33 a2 77 3d 2f a8 9c bd e9 5a ab 3b 5a 13 77 bc
       0.06045742 -0.07649266 0.005229343 -0.015080297
0000d0 f7 c2 31 3b 38 bb a3 bb cd b4 b5 3d a1 ae 83 3d
       0.0027124265 -0.0049966834 0.08872376 0.06429792
0000e0 a4 3a 13 3e b0 3d 6b bd 31 ad f6 bc b3 7d eb 3c
       0.14377838 -0.057431877 -0.030111881 0.028746461
0000f0 b5 c9 f0 3b 0c c7 51 3d 65 e7 76 3d 1f 33 87 bc
       0.007348264 0.051215217 0.06027927 -0.016503869
000100 3a 53 0a 3b 9d a5 5a bc 0f 31 5c 3d dc 35 47 3d
       0.0021106736 -0.013345149 0.053757723 0.04863535
000110 45 3e b4 bd cd eb 71 3d b9 32 64 3c bd 40 32 bc
       -0.088009395 0.059062768 0.013928109 -0.010879693
000120 b1 dc 67 bd 74 9f 17 3c c5 d3 1c bd 0b 4d dc 3c
       -0.056606952 0.009254325 -0.038287897 0.026892206
000130 29 21 7c bd cf c9 a8 bd c1 5b cb bc cf 70 51 3d
       -0.06155506 -0.08241617 -0.024824025 0.051132973
000140 32 f1 93 3d da 33 66 3d 43 54 7d bd 5f b6 52 3e
       0.07223739 0.056201793 -0.061847936 0.20577382
000150 75 6a 4a 3d 84 d4 03 3d c8 42 9d 3d 9b e8 88 3d
       0.04941793 0.032185093 0.07678753 0.06684991
000160 10 33 ba 3d a2 f8 99 3d 9b e3 bc bd f9 c8 28 bc
       0.09091771 0.07518126 -0.092231 -0.010301822
000170 b1 99 65 bb d5 3d 0c bd 79 d3 42 3e e9 f1 b9 bc
       -0.0035034234 -0.034238655 0.19025983 -0.02269836
000180 fb ef fe bc bd 6a 97 bd 4c 03 73 3d 89 d1 d7 3b
       -0.031120291 -0.073934056 0.059329316 0.006586258
000190 e5 42 82 bd ca d8 17 3e aa dd 83 bd bc e5 0c 3d
       -0.06360415 0.14828792 -0.064387634 0.03439878
0001a0 87 89 ef 3d 13 e6 5d bd 2e 8c 9d 3d b0 06 9d bd
       0.11696153 -0.054174494 0.07692753 -0.07667291
0001b0 5f f1 f5 3d ed 23 75 bd d5 e3 9a 3d 28 0c 53 bd
       0.120089285 -0.059848715 0.07562987 -0.051525265
0001c0 b2 70 15 bd c0 52 a0 bc 24 d5 81 3d 7d 3b b7 3d
       -0.036484428 -0.019570708 0.063394815 0.08946893
0001d0 86 9a b0 3d d5 e8 18 3d 67 eb 0e 3e 41 7d 28 be
       0.08623223 0.03733142 0.13956986 -0.1645403
0001e0 9d 07 af bc 5c ab 2a 3d 33 86 0e 3c 6f c1 14 3e
       -0.021365935 0.041667327 0.008698988 0.14526914
0001f0 ed 9e 61 3d 1b 58 53 3b af b4 f1 b9 3b 0f fe bc
       0.055083204 0.003224856 -0.00046101722 -0.031013122
000200 4f a3 14 3c bc fb 8c bd 60 f6 0b 3d a9 69 8a bd
       0.009072139 -0.06883952 0.03417051 -0.06758434
000210 d2 79 f0 3c 65 9c e1 bc 50 6a 38 3d cb 1e 2b bd
       0.029354963 -0.027540395 0.045023263 -0.041777413
000220 81 56 c2 bd 9c fa 20 3d 9e 2d 00 bd c1 1a 5e bd
       -0.094891556 0.0393015 -0.031293504 -0.054224733
000230 3a 9e d8 bc 59 a8 05 3d e7 b8 00 3d 4e dd b6 bd
       -0.026442636 0.032631252 0.031426337 -0.08928929
000240 d5 94 14 3d 5d ff 52 bd b1 0e 01 3e ca dd 84 3d
       0.03627475 -0.051513065 0.1260326 0.064876154
000250 33 fd 84 3c 42 da 87 3d 1a 9c 08 3b 02 32 56 3d
       0.016234016 0.06633426 0.0020844997 0.052293785
000260 d0 02 30 3d 82 f7 f1 3d 1f 39 ac bd 76 56 d9 3c
       0.042971432 0.118147865 -0.084093325 0.026530486
000270 69 01 7f 3c ef 3a 24 3d 6b ba 29 3d 82 67 7c bd
       0.015564301 0.040095266 0.041437548 -0.06162215
000280 eb a4 de bc 73 32 21 bd d2 a9 63 3d 92 a7 a8 bd
       -0.027178248 -0.039354753 0.055581875 -0.082350865
000290 98 5d 23 3d e1 d0 b8 bd d1 16 06 3d 8e c7 de bc
       0.03988418 -0.090242155 0.032736603 -0.027194764
0002a0 03 92 7c bc 14 b3 86 3c 11 82 18 bd 20 7a 34 3d
       -0.015415671 0.016442813 -0.037233416 0.04406178
0002b0 04 f7 6d 3d eb ac 80 bb e6 1e ff 3b af 45 d1 bc
       0.0580969 -0.0039268634 0.007785666 -0.025545923
0002c0 0f 14 46 bd 82 77 0f bb 93 3a 9b bd 10 d4 c3 3d
       -0.048358973 -0.00218913 -0.075795315 0.09561932
0002d0 87 14 1f bd 7b f4 31 3d 30 80 c4 3d b3 e8 be bb
       -0.038837936 0.043446045 0.09594762 -0.0058260798
0002e0 52 2d f7 3c a1 29 f1 3d f6 ca 92 3d dd c1 a1 bd
       0.030172978 0.11775518 0.07167618 -0.078983046
0002f0 92 86 39 bd 9e 32 0b 3d b4 be 95 3d c4 70 5b bd
       -0.045294352 0.03398382 0.07311764 -0.05357434
000300 85 f9 8a bc 7b 5a 4c bd be 0b ec bc 68 ec 80 bc
       -0.016964683 -0.049890976 -0.028814193 -0.015737727
000310 b7 26 9a 3d fb 93 8b bd 28 ac b3 bb ce 21 6c 3d
       0.075269155 -0.068153344 -0.005483169 0.057649426
000320 f7 26 73 3d 2f 1f 86 bd 6e 0a 80 bd ce e2 2f 3d
       0.05936333 -0.065489165 -0.06251989 0.042940907
000330 25 58 0a 3d 29 20 84 bc 80 77 2b 3d 3b 49 a6 bd
       0.033775467 -0.016128616 0.04186201 -0.08119436
000340 a6 cf 4d 3c 73 00 69 3d 5f ac 84 3d 84 e9 e8 bd
       0.012561714 0.056885194 0.0647819 -0.113726646
000350 62 c6 df bd 70 42 75 3d 11 b1 f5 3c c3 00 3e 3b
       -0.109265104 0.059877813 0.029991658 0.0028992153
000360 fe 6b 9b 3d ac 40 55 3d 91 58 98 3d 45 dd c9 3c
       0.07588957 0.05206363 0.07438768 0.024641642
000370 08 73 dd 3c 0d 6c 40 bd 3a 54 0a bc d2 0c df bd
       0.02703239 -0.046978045 -0.008442933 -0.10891117
000380 3a f9 4f bd 22 4a ed bd 22 c4 a6 3d e5 b8 0d bd
       -0.05077479 -0.11586405 0.08142878 -0.034600157
000390 1b f3 e2 3c 13 3e 98 3d 30 3f 9b 3c 90 04 7c 3d
       0.027703812 0.07433715 0.018951029 0.06152779
0003a0 a3 bf 24 3b 73 9a bf bd 4f 6c f6 bc a0 5d 95 3d
       0.0025138638 -0.09355631 -0.030080942 0.07293248
0003b0 f4 26 b1 bd 40 29 1b 3d 53 73 db 3d 00 fd 1b 3d
       -0.08650008 0.037881136 0.10715356 0.038083076
0003c0 fb d2 d3 bb b3 41 fa 3a 17 82 6d 3d 9c 66 b8 3d
       -0.00646436 0.0019093066 0.05798539 0.09003946
0003d0 1a cc f6 3d 41 23 8b bd 6b 06 3c bd a0 e4 98 bc
       0.12050648 -0.067938335 -0.04590456 -0.018663704
0003e0 9c 3c 7e bd 96 b0 b3 bd ce 73 90 bd 42 5d 9d bc
       -0.06206952 -0.087739155 -0.07053338 -0.019209508
0003f0 9a d2 cd ba db 06 7d bc c0 f3 fc bc 6b 5a e8 ba
       -0.0015703023 -0.015443529 -0.030877948 -0.0017727142

fc2.bias f4 [64]
000000 93 c8 6e 3c 30 72 07 3c 4e 98 8a bb 9b 2e 22 bc
       0.014574188 0.0082669705 -0.004229582 -0.009898807
000010 04 8f 42 3d ba 35 08 bd d7 f5 72 3b af 7a b4 bd
       0.04749967 -0.033254363 0.0037072801 -0.088124625
000020 de c0 16 bd db 72 b7 3c 13 7d e0 bc db 99 8b bd
       -0.036805026 0.022393635 -0.02740339 -0.06816455
000030 ca e4 28 3c 6a 35 c3 3d 66 24 90 3d 2f 06 ba 3d
       0.010308454 0.09531672 0.070381925 0.09083211
000040 f5 12 a8 bd 34 6b d4 bc 61 2b 0b bd 8c 43 17 3d
       -0.08206741 -0.025930025 -0.033976916 0.036929652
000050 05 fd c0 bb 53 e1 5d bd 3c c5 bd 3c 92 23 66 3c
       -0.0058895373 -0.054169964 0.023165338 0.014046567
000060 75 cf 1d 3d 98 de 3c 3d 7f fd b4 bd c4 12 84 3c
       0.038527925 0.04611072 -0.08837413 0.01612223
000070 22 f0 c5 3d ff 4d 94 3d 02 18 db 3c 3b 62 96 3d
       0.09664942 0.07241439 0.026744846 0.07342955
000080 eb 57 af 3c 69 78 12 3d b8 9e aa bc 0c a1 bd 3d
       0.021404227 0.035759363 -0.020827636 0.09259233
000090 80 3f 30 3d 75 0d a8 3d 0d 09 a7 bc 3d 3c 36 3d
       0.04302931 0.08205692 -0.020390058 0.04449104
0000a0 5c 27 6b bd 16 c6 6a bd 5f f1 50 bd 8a f4 be bc
       -0.057410583 -0.057317816 -0.05101144 -0.023309965
0000b0 49 9c 87 bc 99 c1 35 3d 5d 4a f5 3a 32 c0 31 bc
       -0.016554015 0.044374082 0.0018714179 -0.010849046
0000c0 3f 6c 24 bd c7 c9 a1 3c 0a 44 1f bd b6 12 20 3c
       -0.040142294 0.019749535 -0.038883246 0.009770086
0000d0 e4 f8 4d bd 33 33 c6 3d 62 49 11 bd 60 a6 d3 ba
       -0.05028619 0.09677734 -0.035470374 -0.0016147606
0000e0 e3 e1 db 3c 95 37 ea bc 82 e3 2d bd 60 63 a7 3c
       0.02684111 -0.028590957 -0.042453296 0.020433128
0000f0 e5 dc 77 3d 75 23 30 3d bf 4d 4d 3d a5 af 3f 3c
       0.060513396 0.043002564 0.050122973 0.011699592

fc3.weight f4 [10, 64]
000000 a2 e0 c4 3e bc ac 48 be 3c 0d a5 bb 4a c5 3d 3e
       0.3845263 -0.19597143 -0.005036978 0.18532291
000010 c8 f5 9a 3e b2 2f 44 bc e7 c0 71 be fa c2 00 bd
       0.3026564 -0.011974262 -0.23608743 -0.031435944
000020 15 ca 96 bd c7 16 4a 3e 20 22 6f 3e cd 95 1b 3e
       -0.07362763 0.19735251 0.23352861 0.15193863
000030 74 93 84 3e 68 cf 8c be 88 f4 b1 3d 3c 16 cf 3e
       0.25893748 -0.27501988 0.08689219 0.4044665
000040 90 a5 bd bd 77 34 8f be 33 ea da bd f4 7d f0 3c
       -0.09260094 -0.27969715 -0.10689201 0.029356934
000050 ff 4b 20 be cb 53 58 be 5d 9d 00 bd e9 f6 04 3e
       -0.1565399 -0.21125714 -0.031400073 0.12984814
000060 bc 4e 95 3d 50 53 a6 3d 5a bc b9 bd c0 08 a1 bd
       0.07290408 0.08121359 -0.09069128 -0.07862997
000070 23 23 a6 3e 31 71 01 be 23 0d 83 be a7 dc 4c 3e
       0.32448682 -0.12640835 -0.2559596 0.20006047
000080 e4 34 ab bd 37 41 39 3d e0 e2 bd be 11 4b db be
       -0.083596975 0.04522821 -0.37087154 -0.4283071
000090 45 95 a1 3c 99 47 bc bb 8a 35 3e ba c0 55 d8 bd
       0.019724498 -0.00574584 -0.0007255903 -0.105632305
0000a0 52 e1 70 3e a6 de b8 bd 46 e3 4a 3d 59 ef ca 3e
       0.23523453 -0.09026842 0.04953315 0.39635733
0000b0 7b 22 1d be 80 8e 49 3d 7a dc 4c be aa 10 0e 3d
       -0.15345185 0.049208164 -0.2000598 0.03468386
0000c0 71 73 a8 3e cf dd 8c be d4 25 61 bd 80 92 67 be
       0.32900575 -0.27512977 -0.054967716 -0.22614479
0000d0 4a 5a 41 bd f7 fe b6 3d 06 5a f9 be 10 99 2c 3e
       -0.047205247 0.089353494 -0.48701495 0.16855264
0000e0 fd cd 6d 3d ff 66 da bd 3a 1e 88 be af 5a fc 3d
       0.058057774 -0.10664176 -0.2658556 0.12321984
0000f0 1a c3 26 3e a3 0b ae 3a 67 c3 1e bc 87 23 42 3e
       0.16285363 0.0013278614 -0.009690142 0.18958865
000100 18 9b 2f be c4 ed 10 3d 4a 80 26 3d 69 b9 77 3e
       -0.17149007 0.035383 0.04064969 0.24191822
000110 71 41 ad bd ad 6f 92 be f9 92 23 3e 91 eb 88 3d
       -0.084597476 -0.28600827 0.15974034 0.06685556
000120 1d 11 b0 bc 17 02 45 3e 3b 70 5c bd 8b 18 3f be
       -0.021492535 0.19239078 -0.05381797 -0.18661706
000130 7d 43 57 bd 84 b5 85 3e 28 3c bb bd 36 07 46 be
       -0.052554596 0.26115048 -0.09142333 -0.19338688
000140 cc 20 47 bd 23 8b da 3e 56 bb 82 be 0e 47 a4 bd
       -0.048615262 0.42684278 -0.2553355 -0.08021365
000150 f7 7a 9b bd 14 f9 40 3e 75 ff 91 be e1 8c 10 3c
       -0.07591813 0.18845016 -0.2851521 0.008822651
000160 31 af 77 3e 8f b5 98 bd f3 8e 21 3e a8 07 f9 3d
       0.24187924 -0.074565046 0.15777187 0.121596634
000170 eb ac ab be 9e a7 52 3e df e7 aa 3d 06 af 17 3e
       -0.33530363 0.20571753 0.08345007 0.1481286
000180 ca a3 1c 3e 34 9b 7f be bf 24 90 3e 90 dc e8 bd
       0.15296856 -0.24961549 0.28153035 -0.11370194
000190 d1 d7 f8 3d 67 69 2b 3e 91 21 4e be be 48 25 3c
       0.12150539 0.16739427 -0.20129992 0.010088144
0001a0 7a b4 0e 3e 51 08 80 bd 4f 71 80 3d da a3 c7 3c
       0.13936034 -0.06251586 0.06271612 0.024370123
0001b0 8d 2a 8c be d8 9b 25 be d6 e3 32 3e 55 a0 c6 3d
       -0.27376214 -0.16172731 0.17469725 0.0969855
0001c0 3d 7d a4 be 01 b2 96 3d 03 1e 51 be 0c 37 08 3d
       -0.321268 0.0735817 -0.20421605 0.03325562
0001d0 7d a9 30 be a0 3c 9d be 36 60 f9 3e 84 d1 35 be
       -0.17252155 -0.30710316 0.48706216 -0.17755705
0001e0 93 f2 0a 3c d0 9f 10 be a8 df 5d be 5b 6f 1b 3e
       0.008480686 -0.14123464 -0.2166735 0.15179197
0001f0 c7 c5 03 bd 73 0e 93 bd 59 c5 73 bd db e1 2d 3e
       -0.032171037 -0.0718049 -0.059514377 0.16980688
000200 3f 65 19 bd 27 fd ab bd 0d 73 d7 3e ad 89 3e be
       -0.03745007 -0.08397894 0.42079964 -0.18607207
000210 2d 9e a4 be b5 f2 8b bd 3e e8 2e 3b d0 7a 77 3c
       -0.3215193 -0.06833402 0.002668872 0.015104964
000220 66 4f 4e bd e2 8f d1 3e a4 18 01 3f 14 a3 65 be
       -0.05036869 0.40930086 0.50428224 -0.2242549
000230 1f cf 1e 3e 26 3b bd be 97 27 cc 3c 67 a5 1c 3d
       0.15508698 -0.3695919 0.024921222 0.038243677
000240 e5 f2 ac bd c6 89 75 3e 04 42 21 3d 1f 13 93 3d
       -0.08444766 0.23978338 0.039369598 0.071813814
000250 d1 ae 5f be 50 0f 93 be 30 ee 1f 3e 74 00 42 be
       -0.21844031 -0.2872262 0.15618205 -0.18945485
000260 16 40 83 3e 45 2f fb 3e 84 0b fc 3d de d4 da bd
       0.2563483 0.490595 0.12306884 -0.106851324
000270 29 4c ec 3e b2 a0 90 bd 71 c5 c6 3d 30 7d 9b bd
       0.46151856 -0.070619 0.09705628 -0.07592237
000280 f4 62 30 be f1 48 25 3e f8 a5 86 3e 2c 17 4d be
       -0.17225248 0.16141106 0.262985 -0.2002837
000290 d6 8d 6b 3b 8e 9c 1c 3d a5 c0 d6 bc 07 d2 9c bd
       0.0035942695 0.03823524 -0.026214907 -0.07657247
0002a0 cf d4 d7 bd a0 a5 e6 3d 32 fe 96 3b f8 86 91 bd
       -0.10538637 0.11262059 0.004607939 -0.07105821
0002b0 56 06 21 3e 90 c9 bf 3d 20 d2 5e 3e 73 b2 e1 bd
       0.15725073 0.09364617 0.21759844 -0.110203646
0002c0 de b5 01 bb cd de 95 3c 5c 58 63 3e 99 3c 9e 3d
       -0.001979224 0.018294716 0.22201675 0.07726402
0002d0 32 26 33 3c 59 16 a3 be 0e 06 59 be 61 f2 99 be
       0.010934399 -0.31852987 -0.21193716 -0.30067733
0002e0 61 db d8 bc e9 34 78 3e 1a 60 92 3e 18 25 fb bd
       -0.026471796 0.24238934 0.28588945 -0.122629344
0002f0 5a 95 54 be 3a 2c dd bd 52 91 dc bd f7 a8 5f be
       -0.20760098 -0.10799451 -0.10769905 -0.21841799
000300 c0 6a a2 bd da d5 74 3e 2d 7c 08 3e 52 80 89 be
       -0.07930517 0.23909703 0.1332862 -0.26855713
000310 e9 41 56 bd 22 77 6b 3d c2 28 b4 bd 17 41 bf 3d
       -0.05230895 0.05748666 -0.087968364 0.09338587
000320 ac 5c 8e bd df a3 e1 3d a5 ba 21 3e ff b9 b8 3d
       -0.069512695 0.11017584 0.15793855 0.09019851
000330 2e e3 c4 bd e4 30 22 3e af c2 99 3d 43 e1 ce bd
       -0.096136436 0.15838963 0.07507836 -0.10101559
000340 49 0f 3c 3d 46 95 75 be 54 fa 62 3e 5c b6 9b bd
       0.045913015 -0.23982725 0.22165805 -0.07603142
000350 cf e7 bf 3e 23 f8 c7 3e 8b 4c f7 bd 56 b5 e6 bd
       0.37481543 0.390565 -0.12075146 -0.11265056
000360 45 49 7a 3e 1b 5d dd 3d 21 5d c0 bd 89 94 04 bd
       0.24442013 0.10808774 -0.09392763 -0.032368217
000370 6d 88 91 3e d4 13 e3 be ae fe 05 be 71 81 29 be
       0.28424397 -0.44351065 -0.13085434 -0.16553284
000380 a6 ca ae be f4 b5 7b be 2e 5e 90 bd f3 0f 75 be
       -0.34138983 -0.24581128 -0.07049213 -0.23931865
000390 79 bb bf 3d f1 be 07 be 8b b3 7f 3e a1 08 c8 bd
       0.093619294 -0.13256432 0.24970834 -0.09767271
0003a0 5e 91 a8 3e 33 cf d3 bc ce 65 a5 bd 41 c2 96 be
       0.32923406 -0.025855636 -0.08076058 -0.2944508
0003b0 22 74 4e 3e 1b 4b 0c 3e 16 b5 0f bd 24 04 da bd
       0.20161489 0.13700525 -0.035084806 -0.10645321
0003c0 d4 a4 d5 be b8 4c 65 be 7e 8c 9c be e0 84 2f bd
       -0.41727316 -0.22392547 -0.30575937 -0.04285133
0003d0 a5 16 14 3e f7 e5 69 be cb 68 0f 3f 9d cb c6 3d
       0.14461763 -0.22841631 0.56019276 0.09706805
0003e0 2b 6b 91 3d 2d ac b3 bd 0a 05 68 bd 2f 29 9d bc
       0.07100519 -0.08773074 -0.05664543 -0.019184677
0003f0 35 60 0d 3e 44 03 53 bc 1c 6c b5 be 81 38 29 3e
       0.13806231 -0.012879197 -0.35434043 0.16525461

fc3.bias f4 [10]
000000 da 63 46 bd 41 e3 a2 bd 1b e5 c5 3c 68 68 e2 bc
       -0.04843507 -0.079535015 0.024157098 -0.027637675
000010 9b 6d c1 bc ed bb 0f 3d 35 35 25 3d 08 b1 71 bd
       -0.023611834 0.03509133 0.040333945 -0.05900672
000020 34 30 49 bd 37 44 ae 3c
       -0.049118236 0.021272762
